model/mymodel.pt (torch, 300552 bytes, 6 tensors)

fc1.weight f4 [88, 784]
000000 a0 89 0d 3b a0 5e 4a 3c bc 0a a3 bc c0 6b d6 bb
       0.0021596923 0.012351662 -0.01990258 -0.0065436065
000010 ee dd 8b bc 4e cd e7 3c e6 a0 19 bc 75 35 11 3d
       -0.017073598 0.02829614 -0.00937674 0.03545137
000020 a4 79 f0 bb 14 90 cc bb fe de c1 bc f0 f5 38 bb
       -0.0073387194 -0.0062427614 -0.023665901 -0.0028222762
000030 75 36 34 3d 9d 08 ce 3d ff 8e 6b bd 2c 73 54 3c
       0.043997247 0.100602366 -0.05750942 0.012966912
000040 f2 a7 dd 3c 7c 24 86 bc 18 2c 25 bc 4a 3e 43 bc
       0.027057622 -0.016374819 -0.010081314 -0.011916706
000050 9c a5 00 bd 2a e9 c6 bc e0 98 94 bc 2e 6f a4 3c
       -0.031407937 -0.024281103 -0.018139303 0.020072546
000060 d5 b9 0b bd 70 77 62 bb 72 dd 20 bc f4 71 73 3c
       -0.03411277 -0.0034556054 -0.009818422 0.0148587115
000070 96 f8 07 bd dc 54 78 3c 90 aa 08 3c c0 c9 f9 ba
       -0.033196054 0.015156951 0.0083414465 -0.0019057319
000080 cf 9a 94 3c cd 07 69 3d 16 26 18 3e 0d a3 26 3e
       0.018140225 0.056892205 0.14858279 0.16273136
000090 fd 3c 10 3e e2 cb 61 3e 62 e5 55 3e 1a 5a 1d 3e
       0.14085765 0.22050431 0.20888284 0.15366402
0000a0 3a 22 70 3e 6e 92 3c 3e d4 0a b1 3e 7d fc 62 3e
       0.23450556 0.18415233 0.34578574 0.22166629
0000b0 cb c0 78 3e 75 52 41 3e 47 39 c0 3e 5d aa 8e 3e
       0.24292295 0.18879111 0.375437 0.27864352
0000c0 4a d1 3b 3e 0b 6b 4e 3e a2 1e 0a 3e a2 b0 bd 3d
       0.18341556 0.20158021 0.13488248 0.09262206
0000d0 60 7b ba bc fa 63 89 3c be 30 a2 bc d1 cb f3 bc
       -0.022763908 0.016771305 -0.019798633 -0.029760273
0000e0 aa c4 11 bc 33 fd ab bc 5c 42 f4 3c 9c 05 b5 3d
       -0.008896986 -0.020994758 0.029816799 0.088389605
0000f0 42 ed 41 3e cd 71 1b 3e 62 04 19 3e 8d 46 49 3e
       0.18938163 0.1518013 0.14943078 0.19655819
000100 20 de f3 3d 25 29 85 bd d2 f8 01 3d 42 6d 93 3e
       0.11907601 -0.06501988 0.031731434 0.28794295
000110 dd df e8 3d ba 5f c7 3d 00 be cf 3d 8e 29 d0 3d
       0.113708235 0.09735055 0.101436615 0.10164176
000120 a8 e8 0a 3e e4 bd 54 3e e6 f5 b0 3e 52 28 f1 3e
       0.13565314 0.20775563 0.34562606 0.47101074
000130 87 02 d6 3e c1 65 99 3e e0 77 c9 3e 4a c5 81 3e
       0.41798803 0.29960445 0.3934927 0.25345832
000140 95 9c 65 3d a7 4b 2e bb 20 b9 38 3b 40 62 0c ba
       0.05605753 -0.0026595385 0.0028186515 -0.00053552166
000150 ba de f8 3c 90 43 b2 3b a5 42 5e 3d 96 d1 45 3e
       0.030379642 0.005440183 0.054262776 0.19318232
000160 13 b6 14 3e 48 51 83 bd d0 dd 88 3d f1 86 15 3e
       0.14522581 -0.064119875 0.066829324 0.14602257
000170 d3 44 0b 3e 48 f7 52 3e 75 97 fe 3d f6 b6 e4 bb
       0.13600473 0.20602143 0.12431232 -0.0069798185
000180 03 58 ed bd b5 1c f7 bc 3e 30 08 3d 9d 89 93 3d
       -0.115890525 -0.030165056 0.033249132 0.07203982
000190 78 fe f5 bd 2c 0b 21 bd d4 fd 82 3e 8e ec 9e 3e
       -0.12011427 -0.039317295 0.2558428 0.31039852
0001a0 c7 13 84 3e ee 9b 91 3e 24 b7 01 3e 63 da 19 3e
       0.2579634 0.28439277 0.12667519 0.15024714
0001b0 d5 28 8e 3d 0d 06 b3 3d 79 c1 ab 3d 4c 30 b5 3c
       0.06941382 0.087413885 0.08386511 0.022117756
0001c0 16 29 a0 3c 78 ae 02 bd d8 26 cd bd 79 88 cb 3d
       0.019550841 -0.031904668 -0.100171745 0.099381395
0001d0 91 50 0a bd ac de b9 bd 24 81 db 3c 43 d3 dc 3d
       -0.03376824 -0.090756744 0.026794977 0.107824825
0001e0 20 c0 ee bc 12 00 4f 3e 58 ec 32 3e 15 14 88 3c
       -0.029144347 0.2021487 0.1747297 0.016611138
0001f0 08 1a f2 bd 99 5b 0b be 3f cf 05 be e7 98 d5 3c
       -0.11821371 -0.1360916 -0.1306734 0.026073886
000200 a9 5d 60 3d dc d2 b0 3d 77 f6 51 3e 13 5f 15 3e
       0.05477682 0.08633968 0.20504175 0.14587049
000210 a0 40 15 3e 60 62 8d 3e 76 fb 08 3e 16 9c 8c 3e
       0.14575434 0.27614117 0.13377175 0.27462834
000220 03 fd b7 3e 85 9c 2e 3e c5 81 66 3e 30 46 af bb
       0.3593522 0.17051895 0.2251044 -0.005348943
000230 a0 18 3d bb 35 9c 98 bc a8 fb 19 3c bf 4b 4b bc
       -0.002885379 -0.018629173 0.009398378 -0.012408196
000240 a5 94 47 be e3 be d8 bd 23 f0 96 39 8f e2 76 3d
       -0.19490297 -0.10583284 0.00028789145 0.060274657
000250 0b 30 cb 39 7f 0f 96 3d f0 d1 25 3d 00 c8 5f 3c
       0.00038754972 0.073271744 0.040483415 0.013658524
000260 c3 ce 7a 3c 50 13 1a bd 52 c2 4b bd af ae 2c 3d
       0.015308085 -0.037616074 -0.049745865 0.04215878
000270 e6 e8 d4 3d f3 16 60 3e 67 4b 96 3e 70 2e 06 3e
       0.10395984 0.21883754 0.29354402 0.13103652
000280 ab 36 44 3e b4 55 3b 3e 02 ec 56 3e e3 3f 87 3e
       0.19161479 0.18294412 0.20988467 0.2641593
000290 f0 5e 9b 3e f0 bf 12 3e 37 c6 91 3e 75 05 25 bd
       0.3034587 0.14331031 0.28471538 -0.040288407
0002a0 0a 7d cf 3c 0b 7c 48 bc 5e 1d 12 3e f0 4d 38 be
       0.025328178 -0.012236605 0.14269015 -0.17998481
0002b0 c9 4d 40 be b5 6c c9 3d 92 75 06 bc 83 e6 ae 3c
       -0.18779673 0.09835187 -0.008206742 0.02135015
0002c0 36 3b 31 3c e3 c5 66 bd f7 cc df ba 2f a7 f4 3b
       0.01081734 -0.056341063 -0.0017074634 0.007466219
0002d0 7c 00 72 bc ef 51 66 bd 88 10 98 3d 4b 3a 2e 3e
       -0.014770623 -0.05623048 0.07425028 0.17014425
0002e0 6e b5 0f 3e d9 1b 48 3e 79 ad 84 3e 4d fe 35 3e
       0.14034054 0.19541873 0.259136 0.1777279
0002f0 ee 78 fd 3d 20 7a a4 3b a5 ce d4 bd a2 23 0a bd
       0.12376581 0.0050194412 -0.10390977 -0.03372539
000300 d3 65 ee 3d 8d f9 75 3e 81 bf 84 3e 10 3b 78 3d
       0.11640515 0.24020977 0.25927356 0.0606032
000310 fe 92 ec 3c 8e 64 84 bd 73 66 dd 3d be 6f e3 bd
       0.028878685 -0.06464492 0.10810556 -0.111052975
000320 db 5e cf be 77 85 23 bd 4b 2d 65 bd ec a8 ee bb
       -0.40502056 -0.039922204 -0.055951398 -0.0072833207
000330 f2 4c ac 3d 2f 3e 93 3d 7b dc 87 3d 38 84 e3 bc
       0.08413114 0.07189595 0.0663385 -0.027773008
000340 93 dd 93 3c d6 6f ba bb 3d b6 2b 3e 37 27 62 3d
       0.01804999 -0.0056896014 0.16768737 0.05521318
000350 1a 37 c9 3d 66 17 dc 3d 7c 68 1b 3e 7c 5a 23 3d
       0.09824963 0.107466504 0.15176576 0.039881214
000360 e3 d2 5f 3c 33 29 45 bd 5a d5 8c be 1e 12 33 be
       0.013661119 -0.048134994 -0.27506524 -0.1748738
000370 f3 6e 15 3d 33 cc a5 3c 74 48 51 3e 2f 1a a2 3c
       0.036482763 0.020238971 0.20437795 0.019787876
000380 f7 ca 05 3d 1a 95 46 bd 89 e0 f0 bc ba 99 e1 bd
       0.032664265 -0.048482038 -0.029403942 -0.11015649
000390 34 07 da be 90 6f 43 be c9 04 c3 bd 34 fe 00 bb
       -0.4258362 -0.19085526 -0.09522397 -0.0019682767
0003a0 b1 d4 86 3d 63 d5 9f bb 39 db 92 bd d7 21 75 bd
       0.065835364 -0.0048777326 -0.0717072 -0.059846725
0003b0 d0 ae f0 bb d2 5e 51 3c d8 97 1c be 72 42 98 be
       -0.007345058 0.012778955 -0.15292299 -0.29738194
0003c0 14 b5 8b be 45 23 79 be 05 ec 97 be 77 ba 9f be
       -0.2728659 -0.2432986 -0.29672256 -0.3119695
0003d0 be d4 94 be 6f e9 aa be 13 2c d6 be e8 4c 85 be
       -0.2906856 -0.3338122 -0.418305 -0.26035237
0003e0 51 f3 57 bd 10 e0 9d bd cc 39 34 3e 4b 27 93 3d
       -0.05272228 -0.07708752 0.17600173 0.07185229
0003f0 12 4f 08 bc 8b 50 ad bd 77 76 00 be f6 7e dd bd
       -0.008319633 -0.08462628 -0.12545191 -0.108152315

fc1.bias f4 [88]
000000 d6 16 5e 3c 08 cb 91 3d 87 24 36 3d 5c ff ec bd
       0.013555249 0.07118803 0.04446843 -0.115721434
000010 2a 9c 79 3d 22 d0 ae bd 12 4b 83 bb 64 b2 26 bc
       0.060939945 -0.08535792 -0.004006752 -0.010174368
000020 f4 ce 5e bd 37 7d 16 3e 8a 12 e2 bc 65 e2 ce bd
       -0.054396585 0.14696203 -0.02759673 -0.10101775
000030 bc 4f 3b be 9b 43 eb 3c ed 8b 5b bd 6f 6c cf bc
       -0.18292135 0.02871876 -0.05360024 -0.02532026
000040 83 3c 8b 3c 9e a3 3b 3e 8b 3e 11 bd d9 7e 8c bc
       0.016996628 0.18324134 -0.035460036 -0.01715033
000050 d7 9f 71 3c e7 17 f3 3d 68 0d d6 3c 6b 93 12 3e
       0.014747581 0.118697934 0.02612944 0.14314048
000060 df 5a bc bd 92 9e 26 be 75 e0 e4 bc 67 74 8e 3c
       -0.0919702 -0.16271427 -0.02793906 0.01738949
000070 86 e0 19 3e a2 1f 1d 3e c1 f6 85 3e b4 6e d8 bd
       0.15027055 0.15344098 0.2616482 -0.1056799
000080 8a 28 19 3d 4a 17 9c bb d5 4c 85 3d 57 b9 be bc
       0.037392177 -0.0047635185 0.06508795 -0.023281736
000090 8f 71 a8 bc e8 07 1a 3d 15 80 04 bd f8 af 6d 3d
       -0.020561961 0.037605196 -0.03234871 0.058029145
0000a0 d4 a8 f5 bd 2e 17 28 be 58 ba 03 be 9a 06 f3 bd
       -0.11995092 -0.16415092 -0.12864053 -0.118664935
0000b0 fc 1d 2b bd 4c c2 17 be f8 75 00 3e d0 6c ce 3c
       -0.041776642 -0.14820212 0.12545002 0.02519837
0000c0 78 29 cd 3c 65 5c b9 3d a1 3f de 3d 8e cc 11 bd
       0.025044188 0.09050826 0.1085198 -0.03559547
0000d0 b5 5f b1 3c db 18 31 3e 68 7b 23 be be 22 d5 bc
       0.021652082 0.17294638 -0.15965044 -0.026017543
0000e0 f4 eb 5d 3c ee 01 a1 3d c0 12 6b bd 93 91 16 3e
       0.013545025 0.07861696 -0.05739093 0.1470397
0000f0 50 e9 85 3b 45 b2 22 3e 63 c9 1b 3e 26 da 6a 3d
       0.004086651 0.15888317 0.15213542 0.05733695
000100 24 98 8a 3a d3 c9 ef bc 1f 4a 37 3d 1e bb fd bb
       0.0010573906 -0.029271042 0.04474842 -0.0077432534
000110 e6 c8 f6 3c f2 a7 6c 3d 8c 7e 46 3e 5a e1 05 3e
       0.030125093 0.057777353 0.19384211 0.13074246
000120 cb d1 28 bc a6 9a 23 3d 9a 14 83 bd f9 61 4f 3b
       -0.010303925 0.039942406 -0.06400414 0.003164409
000130 f7 e5 5c bc 36 ef 29 be 35 00 1d be 37 b9 62 bc
       -0.013482562 -0.16595158 -0.1533211 -0.013838104
000140 5e b6 25 bd ce 10 25 bc 76 06 33 3e 44 5c 3e 3e
       -0.040457122 -0.010074807 0.17482933 0.18589884
000150 0b 81 d5 3c e8 3d 04 3b b9 bf 2c 3e 5c 45 da 3d
       0.026062509 0.00201785 0.16870011 0.106577605

fc2.weight f4 [55, 88]
000000 6b b1 32 3e 50 63 5c be 8f e0 dd 3c 03 9f a4 bd
       0.17450492 -0.2152226 0.027084617 -0.080381416
000010 e9 99 0b bd af c3 6c bd e4 49 98 bc a8 6e 2c be
       -0.034082327 -0.057803806 -0.018589921 -0.16839087
000020 a9 32 1c 3e 8c 37 87 bd 51 c8 b2 3b a7 ab d0 be
       0.152537 -0.066023916 0.0054560085 -0.4075596
000030 de 0d c6 bd 59 62 2f 3e 68 c3 4d 3d fa f4 91 3c
       -0.09670614 0.1712736 0.050235182 0.01781701
000040 dd 2f 50 be 62 0f f4 3d 0b cd b2 bd 47 f7 f1 bd
       -0.20330758 0.119169965 -0.08730515 -0.118147425
000050 a9 f8 7f be 96 ff e1 3d 15 7a 8b 3e 5e d1 eb bd
       -0.249972 0.11035077 0.2724158 -0.11514543
000060 f7 fd 63 3e 93 b2 25 3d c7 8d 37 be 49 3d 4a 3e
       0.22264849 0.040453505 -0.17925178 0.19749941
000070 b3 29 1a bc 93 80 88 be ac 8c 64 3e a6 15 2d 3e
       -0.009409356 -0.26660594 0.22319287 0.1690279
000080 94 a0 7f be b1 a0 a8 be 65 53 60 be 7d 07 3d 3d
       -0.249636 -0.32935098 -0.21906812 0.04614972
000090 97 42 5a bc 65 b5 71 3d 7c cf 5e be 6a 03 79 3d
       -0.01332154 0.059010882 -0.21758837 0.06079427
0000a0 0e 14 91 bd b5 2e 4e 3d bb df 50 be 37 99 17 3d
       -0.07083903 0.050337512 -0.20397846 0.03701135
0000b0 60 31 49 3d 32 39 c9 3e 5f aa 93 3d a1 26 40 3c
       0.049119353 0.3930145 0.0721023 0.01172796
0000c0 37 4a 5e 3c 89 27 d0 bc b2 22 d7 bd b5 61 ea bc
       0.013567499 -0.025409477 -0.105046645 -0.028611043
0000d0 59 14 11 3e 91 ae 76 be d2 e7 b7 3d 02 6b 26 3e
       0.14167918 -0.2409003 0.08979763 0.16251758
0000e0 bf 00 dc be 10 c0 3d be ab 5d d5 3e c8 39 83 3d
       -0.4296932 -0.18530297 0.41673025 0.06407505
0000f0 73 cd ba bd 48 13 3f 3d 71 04 86 3e 24 bc 62 3c
       -0.091212176 0.046649247 0.26175264 0.0138388015
000100 7a c0 3b 3d fe 71 98 3e a7 5a ca be 5b 7a 0c be
       0.045837857 0.2977447 -0.39522287 -0.1371855
000110 5e 93 0f 3e df c6 43 be 55 df 35 bd 58 0c 82 3e
       0.1402106 -0.19118832 -0.04440244 0.25400043
000120 08 14 94 be 86 06 8a 3c 62 eb f1 bd 19 af f6 bd
       -0.28921533 0.016848814 -0.11812474 -0.12045116
000130 8f 9b 9a bd 14 ad 89 3d b2 5a e3 bd c1 81 c7 3d
       -0.07549202 0.06722465 -0.11101283 0.097415455
000140 0d e2 22 be 9a 22 b2 3d 97 23 e7 3d 00 e7 fc bd
       -0.15906544 0.08698006 0.11286085 -0.12348747
000150 46 72 45 be 18 6f 59 3e 47 77 01 3e 34 be d3 bc
       -0.19281873 0.21233785 0.12643157 -0.025847532
000160 b0 2e 83 be 53 6e b4 3e e5 71 dc 3d 7c cc 0f 3c
       -0.25621557 0.3524042 0.10763911 0.00877678
000170 03 ab 40 3d 15 ee 18 3e d6 cd 5f bd 1e 8e ab 3d
       0.04703809 0.14934571 -0.05463966 0.08376716
000180 7f fd d6 3d 2c e2 69 be 60 1b 86 3d db 9a 6c 3c
       0.10497569 -0.22840184 0.0654819 0.014441217
000190 95 24 0f be c3 ea 06 be e6 b8 ff 3c b8 7b 8a 3e
       -0.13978799 -0.13175492 0.031216096 0.27047515
0001a0 76 d7 27 bf 08 54 8c be 9e 24 39 bd 5e b0 88 bd
       -0.6556314 -0.2740786 -0.045200936 -0.06674264
0001b0 30 5a 16 3e d0 68 3d be 82 ea a5 be cb e5 56 3e
       0.14682841 -0.18497014 -0.32405478 0.20986097
0001c0 e9 7b 95 3d 9d 79 93 3e b7 30 88 bd 62 15 49 3d
       0.072990246 0.2880372 -0.066499166 0.049092658
0001d0 43 8f 5f be 19 16 34 3e fb 43 d0 3d 88 59 b7 3d
       -0.21831994 0.17586555 0.10169216 0.089526236
0001e0 bf 41 e8 3c c2 81 a4 3e 30 9a c6 3d 22 bd 07 bc
       0.028351663 0.32130247 0.09697378 -0.008284839
0001f0 93 c0 5d 3e 52 5b 94 3e 70 36 c0 3e a9 a5 c0 be
       0.21655492 0.28975922 0.37541533 -0.3762639
000200 fc 57 2a be ab 0a 43 3d eb 46 bc 3b a4 82 b5 bc
       -0.16635126 0.047617596 0.005745759 -0.02215702
000210 7c ee 07 be 2b 5e d0 bd 83 69 d7 3a 28 c0 7c be
       -0.13274568 -0.10174211 0.0016434643 -0.24682677
000220 4d 5c df 3d d5 68 ca be b5 17 ce be 1e 96 5f bd
       0.10906277 -0.39533105 -0.40252462 -0.054586522
000230 76 a2 fa 3e bd 0a 1e 3e cc 60 1b 3e cc 98 13 3c
       0.48952073 0.15433784 0.15173644 0.009008598
000240 16 4a 41 3e 02 5b 52 bd 24 9a b1 be a7 9f 85 be
       0.18875918 -0.051356323 -0.34687912 -0.26098368
000250 0b e0 2e 3d 40 55 57 3e 56 17 ad be 49 da 45 be
       0.042694133 0.21028614 -0.33806866 -0.1932155
000260 aa 51 46 3e 8f ac 46 3e 36 a2 17 3d e1 74 11 3d
       0.1936709 0.19401763 0.03701993 0.035511855
000270 19 b8 68 be cc b5 66 3d 29 9a a3 bc 50 e7 c6 3d
       -0.22726478 0.05632572 -0.01997097 0.09712088
000280 db 86 c2 3d c3 77 e6 bd a0 62 a3 bd 90 ef 85 be
       0.09498378 -0.112533115 -0.079777956 -0.26159334
000290 ff 49 67 bd 8c 84 15 3e 67 f3 ed 3d 9f 69 57 3e
       -0.056467053 0.14601344 0.11618691 0.21036385
0002a0 3c fd d9 3d 10 6c 0e bd 1e 04 49 3e 42 ff 9a 3d
       0.10644004 -0.034771025 0.19630477 0.07568218
0002b0 a1 c3 f8 bd 08 87 d1 3d 52 1d 04 3e e0 a0 c6 3d
       -0.12146688 0.10230833 0.1290181 0.09698653
0002c0 a8 b6 8c 3e 5e 1e da be dc 25 b0 bd 32 6b 8e ba
       0.27483106 -0.42601293 -0.08600971 -0.0010865687
0002d0 0f e8 7c 3e 37 86 1a 3d 8e e7 11 bd 2d ed d6 be
       0.24697898 0.037725653 -0.03562122 -0.41977826
0002e0 77 51 72 bd 5d 52 89 3d 00 00 a2 38 da 87 68 3d
       -0.059159722 0.06705163 7.724762e-05 0.056770183
0002f0 3d d7 8e bd e0 39 fc 3d 76 20 f6 3d 3c 53 64 bc
       -0.06974647 0.12315726 0.1201791 -0.01393586
000300 d4 a0 1f 3e 48 d7 90 3e d4 9a 9b bd fc 54 74 be
       0.15588695 0.28289247 -0.075978905 -0.23860544
000310 cc f5 a1 bd 42 93 24 3e 7d cb e8 bd 72 c5 75 bd
       -0.0790821 0.160718 -0.11366937 -0.06000275
000320 c8 7c 3e 3d c6 09 aa bc b5 ae 9f bd 91 6a 5f 3d
       0.04650572 -0.020756613 -0.077969946 0.05454499
000330 f9 91 cc 3d 64 84 1f be 7c 79 82 be 5a 86 7c bc
       0.099887796 -0.15577847 -0.2548331 -0.015412891
000340 7d dd 3a bd 32 0f 88 3e d0 5c b8 3d ec e8 cb bd
       -0.045621384 0.26574093 0.090020776 -0.09956536
000350 42 1d e4 3d 41 bd 26 bc 2d 14 43 3e 3b bc 61 3e
       0.11138393 -0.010176958 0.19050665 0.2204446
000360 2d c0 97 3e 48 3d 97 be 4f d1 78 3d 80 50 57 3d
       0.29638806 -0.2953894 0.060746487 0.052567005
000370 1d 1a 50 bd 9a 84 a6 be 2a 39 3e 3e 2e 02 93 bd
       -0.050806154 -0.32523042 0.18576494 -0.0717815
000380 55 df f7 bd 03 6e 17 3e e8 8e 60 be 43 94 4b 3d
       -0.12103144 0.1478806 -0.21929514 0.04970194
000390 1a 14 0f 3f eb 85 43 3e 1e b1 33 3e be e5 1e 3d
       0.5589005 0.19094054 0.17548034 0.038793318
0003a0 ad c4 02 be ca c0 6e 3c 2a d1 20 be ea 78 15 be
       -0.12770338 0.014572332 -0.1570479 -0.14596906
0003b0 ce 0a 0b 3e d0 21 35 3d b5 b1 4e be e0 60 f1 be
       0.1357834 0.0442217 -0.20184977 -0.47144222
0003c0 22 43 53 3e e0 34 01 be 01 03 15 be 5f 76 c9 bb
       0.20631078 -0.12617826 -0.14551927 -0.006148144
0003d0 2c 28 5a 3b 8f 1d 38 3e aa ed 35 3e ca a7 4d bd
       0.0033288104 0.17980026 0.17766443 -0.050208844
0003e0 a6 6f d7 bc 6c 55 74 be 22 a3 73 be 1d 77 f6 3d
       -0.026298355 -0.23860711 -0.23792699 0.12034438
0003f0 2c 7a c4 bd 9a 17 c4 bb 23 5d 5f 3e 0d d4 f5 3d
       -0.09593615 -0.005984259 0.21812873 0.12003336

fc2.bias f4 [55]
000000 58 cc 02 bc 33 18 48 3e d5 61 fe bd 3f 06 94 3d
       -0.00798329 0.19540481 -0.12421004 0.07227754
000010 3d 66 9f 3d af f6 85 bd 58 55 2c 3d 11 3c 46 3e
       0.07783172 -0.06541192 0.042073578 0.19358851
000020 6e 06 90 3e fc 97 1a 3e 96 26 29 bd 09 37 46 3d
       0.28129905 0.1509704 -0.041296564 0.04839233
000030 a9 9b 2f 3d f6 d3 4c 3a c5 b8 14 3d 60 81 48 be
       0.04287306 0.0007813567 0.036309022 -0.19580603
000040 76 10 52 3e 7a c8 4d bd 35 31 b9 bd b1 57 95 3b
       0.20514092 -0.050240017 -0.090425886 0.004557573
000050 a9 f1 98 bd b3 21 a5 bc 39 54 c6 3d 76 ce 4f 3e
       -0.07467968 -0.02015767 0.09684033 0.20293602
000060 4a c5 15 3e 86 0d 07 3e f8 66 1f 3e 8d 28 bd 3c
       0.14626041 0.13188753 0.15566623 0.023090625
000070 79 21 fa 3c f2 e5 87 bd 47 2c bf 3d c2 34 1a 3c
       0.03053354 -0.066356555 0.09334617 0.0094119925
000080 61 47 18 3e 16 bb 12 3e 4f 3e 8f 3e 70 b6 84 3e
       0.14870979 0.1432918 0.27977225 0.2592044
000090 e2 89 a0 bc af 0b 3b bd b9 00 2c bd 79 ed b5 bd
       -0.019596998 -0.04566544 -0.041992877 -0.08883185
0000a0 94 38 f4 3d 43 83 a5 bd d6 fd dd bc a9 45 62 bd
       0.11924854 -0.08081677 -0.027098577 -0.055242214
0000b0 04 8a 50 3e f7 b7 3b 3d 21 b2 0b 3e 87 20 14 3e
       0.20365149 0.04582974 0.1364217 0.14465533
0000c0 cc ab ac bd 6a f0 77 3c a7 2b f9 bc 4f 6c 70 3d
       -0.08431205 0.015133003 -0.030416323 0.05869704
0000d0 75 32 bb bb d2 50 0e be 93 d2 a0 bc
       -0.005712802 -0.13898018 -0.01963166

fc3.weight f4 [10, 55]
000000 02 91 df 3d cd d2 f0 3b f8 25 a4 bd 4d dd a6 be
       0.1091633 0.007349348 -0.080150545 -0.32590714
000010 c8 1e 39 3d ae 96 06 3e f2 75 f3 bd fb 89 40 bd
       0.04519537 0.13143417 -0.11887731 -0.04700659
000020 43 ae 0f be 28 dc 3f 3e 13 6a fa bb 78 f2 bf 3d
       -0.1403132 0.18736327 -0.0076420396 0.09372419
000030 5c d6 6d 3d 7d b3 29 bf c1 23 0a bf 07 ab 81 be
       0.058065757 -0.662895 -0.53960806 -0.25325796
000040 ea a1 b0 3c e8 cc 85 be 50 6d 2a 3e 0d 2c dd be
       0.021561582 -0.26132894 0.16643262 -0.4319767
000050 c2 39 cf be 5f f0 8a be b1 e4 c9 bd 5c fb 96 3d
       -0.40473753 -0.27136514 -0.098580725 0.07372162
000060 10 06 94 3d 41 7b 81 3e 4b 14 61 3e 10 67 34 3e
       0.07227719 0.25289348 0.21980397 0.1761744
000070 ea e5 a4 bd 7c 9b 1e bd e3 8c 92 3e 19 2c 9a be
       -0.08051665 -0.0387225 0.28623113 -0.3011177
000080 3e b8 6e 3c 26 53 1e be 01 62 d9 be f0 67 49 be
       0.014570294 -0.15461406 -0.42457584 -0.19668555
000090 24 72 4a 3e bf 81 4e 3e 3f 58 e1 be f7 67 35 bd
       0.19770104 0.20166682 -0.4401264 -0.0442886
0000a0 1f 47 71 be 66 f5 8d be b2 e5 c6 be 88 ab 86 3e
       -0.23562287 -0.27726287 -0.3884712 0.26302743
0000b0 1d 41 a9 bd 0a 12 bf bd af f0 bd bd 6f 12 1e bd
       -0.082643725 -0.093296126 -0.092744224 -0.0385918
0000c0 52 7d 6d bd a9 7d 20 be ef 28 83 3e cc 4e 9d be
       -0.057980843 -0.15672936 0.25617167 -0.3072418
0000d0 66 a1 62 be 94 d2 06 3e 32 fa 93 3e a7 47 35 bd
       -0.22131881 0.13166267 0.2890182 -0.044257786
0000e0 68 69 4c 3e c8 74 87 3e 86 02 32 3e 57 d2 0e bf
       0.19962084 0.26456285 0.17383775 -0.55789703
0000f0 92 bd 91 be e2 61 94 be b6 eb a4 be 24 21 07 3e
       -0.28464943 -0.2898093 -0.32211083 0.13196236
000100 3a 69 65 bd fd 8d f1 bd 98 32 8f be 90 59 fe be
       -0.056008555 -0.1179466 -0.27968287 -0.49677706
000110 71 74 bc 3c 58 5b e5 3d 6b 3f 91 be bd 79 56 3e
       0.023004742 0.11199063 -0.28368697 0.20944877
000120 37 60 29 be ba fa ad be 01 a6 21 3e d3 9d 9d 3d
       -0.1654061 -0.33980352 0.15785982 0.07696118
000130 af cb 6e bc 3f ae 82 be fc 99 07 bc 82 01 0d bf
       -0.014574929 -0.25523564 -0.008276459 -0.55080426
000140 3e 09 3f be 57 e1 ad be 39 56 ce be bb 4b c2 be
       -0.1865587 -0.33960983 -0.40300158 -0.37948403
000150 48 a8 7f bd 62 96 a0 be 77 2c 6a be da a3 86 be
       -0.062416345 -0.31364733 -0.22868524 -0.26296884
000160 84 c1 7e be 3e 06 ba 3d 99 b3 2f bd 88 a4 42 3e
       -0.24878508 0.09083222 -0.042895887 0.19008076
000170 0e a9 1e be 87 34 77 3e ba e6 ba 3d 3a 61 41 be
       -0.15494177 0.24141131 0.09126039 -0.18884745
000180 eb 6e 27 3e 21 89 13 be c5 2f 5a bd 2d 9e 83 3e
       0.16350906 -0.1440778 -0.053268213 0.25706616
000190 c9 21 f0 be 06 df 01 3e c8 9b 00 be 9d 84 28 bf
       -0.46900776 0.12682733 -0.12559426 -0.6582735
0001a0 28 42 8f 3e 7c f3 e4 3d a4 0b 71 3e 0d b3 bb 3c
       0.2798016 0.111792535 0.23539597 0.022912527
0001b0 b9 d4 83 3e a0 3f db be d9 69 bd 3c eb 0f a4 be
       0.25748232 -0.4282198 0.023121761 -0.32043394
0001c0 7e 9e a5 be cd 87 7d 3d 1d 45 d8 be e5 da f5 3d
       -0.32347482 0.061897088 -0.4224023 0.120046414
0001d0 06 d5 af bc b7 b0 2f 3e 49 29 13 3e 20 cc 31 3e
       -0.021463882 0.17157255 0.14371218 0.17363024
0001e0 37 85 c7 be ad f4 63 be 84 21 85 3d 78 a5 3a be
       -0.38968822 -0.22261305 0.06500533 -0.18227184
0001f0 8e db 75 be a6 de 1a 3e b2 55 a1 3d 8e b4 22 be
       -0.24009535 0.15123996 0.07877673 -0.15889189
000200 0c fd e3 bb 46 da 44 be a9 29 3d 3e ce 60 ef be
       -0.006957656 -0.1922389 0.18472923 -0.46753544
000210 a4 4c 13 3e 15 b6 d3 be 93 cc e4 3d ac 48 4f 3e
       0.14384705 -0.41349855 0.11171832 0.20242566
000220 0e 15 03 be c0 b4 d1 3d de 3a 55 3e 27 78 be bd
       -0.12801 0.102395535 0.20823237 -0.09300261
000230 10 7e 53 be 6f b4 88 be 1b e8 16 3d e1 4e 1b 3e
       -0.20653558 -0.2670016 0.036842447 0.15166809
000240 2d fb b3 be 2a 5a f4 3d 41 fa 40 3e 33 bf 30 3e
       -0.3515257 0.1193126 0.18845464 0.17260437
000250 c3 e3 34 be 24 fe 0c 3c b8 1a 52 be cc 4c 7c 3e
       -0.17665009 0.008605514 -0.20518005 0.2463867
000260 f5 fc 55 3e 8c 76 05 bd 10 d1 03 3e 73 9c 72 be
       0.20897277 -0.03258376 0.1287272 -0.23692493
000270 1f 53 bd 3d f2 ef 5f be 33 30 a7 bd 9b b3 05 3e
       0.0924437 -0.21868876 -0.0816349 0.13056795
000280 ad 7c 0a be 98 7b 6b 3d c6 de 72 be 1e b3 23 3e
       -0.13524123 0.057490915 -0.23717794 0.15986297
000290 fe ea 4b be 07 bf 17 3e b9 7d 3e be c3 26 36 3c
       -0.19913861 0.14818965 -0.18602647 0.01111764
0002a0 6b e2 2c 3e 76 94 a5 bd 9e 94 2c 3e 66 ad 72 be
       0.16883247 -0.08084957 0.16853568 -0.23698959
0002b0 84 24 b6 bc d3 f6 06 3d 6f 3b 02 be 20 30 5e 3d
       -0.022234209 0.032950234 -0.12717985 0.054245114
0002c0 cf 8f 4d be 2c 30 99 be a5 94 99 be 03 41 16 be
       -0.2007439 -0.29919565 -0.2999622 -0.14673238
0002d0 77 df 15 3e c2 10 03 3e b9 6f a0 3e 15 95 41 3e
       0.14636026 0.12799361 0.31335238 0.18904527
0002e0 d0 f4 4a be aa 4c c4 3d 14 66 83 3e fc 95 08 3d
       -0.19819951 0.09584935 0.25663817 0.03334616
0002f0 d7 c7 be be a9 9e ce be dc 40 48 be a4 3a a6 be
       -0.3726184 -0.40355423 -0.19555992 -0.32466614
000300 78 0d 5d 3d 3a 35 1d 3e 32 dd 03 3e fc da 9d 3c
       0.053967923 0.15352336 0.12877348 0.019269459
000310 46 f6 c4 3c 1b 4d 78 bd 87 d7 bd 3b c0 8f 9f 3d
       0.024043214 -0.06062041 0.005793515 0.0779109
000320 ca 9d 21 be d8 96 8a 3c 5a 40 57 3d d5 26 ad 3d
       -0.15782848 0.016917631 0.052551605 0.08454672
000330 15 a4 b7 bd 66 d1 da 3d 2b 14 20 be 88 80 55 3e
       -0.08966843 0.10684471 -0.15632693 0.20849812
000340 3e 4d 8b be e2 0b 01 bf 1d 79 3f 3e 53 d9 d1 3d
       -0.2720737 -0.50408757 0.18698545 0.102465294
000350 40 0e a8 be a3 73 61 be d0 fa 85 bd 15 cc 8a be
       -0.32823372 -0.22016768 -0.06541979 -0.27108827
000360 18 4a ac be 63 e1 38 3e 25 99 e3 bd 9c 24 8d be
       -0.3365028 0.18054728 -0.111131944 -0.27566993
000370 58 43 91 bc b6 31 55 3e 33 8c c7 be dc d3 3a be
       -0.017732307 0.20819744 -0.3897415 -0.1824488
000380 aa f0 92 3d e4 12 ea be 8c 79 01 3e bf fd c2 bd
       0.07174809 -0.45717537 0.12644023 -0.095210545
000390 f1 73 8d 3b c1 a1 80 3d ab f9 87 be 6c ea 02 3e
       0.0043168 0.06280852 -0.2655767 0.12784737
0003a0 bb 4d 07 bd 49 f2 11 be fb 65 a8 3e b5 b2 06 bf
       -0.033033114 -0.1425258 0.32890305 -0.52616435
0003b0 bb 56 cb be 3b e3 a8 3e 63 c4 77 bd 50 5b bf be
       -0.39714608 0.32985863 -0.060490023 -0.37374353
0003c0 19 6f f5 bc c1 ce c6 3c 78 dd 48 3c cb 88 84 bd
       -0.029960202 0.02426851 0.0122598335 -0.06471404
0003d0 85 54 5c 3e 22 ee c3 3a bf 48 fa bd 9c ec 18 bf
       0.21516617 0.0014948288 -0.122209065 -0.5973604
0003e0 3d 0c 45 be 8e b0 0f bf 6f d9 1e be 6a ff 69 3c
       -0.1924295 -0.56128776 -0.15512632 0.014282087
0003f0 a5 4d 1d be 30 17 27 3d 74 e6 d0 3c 49 06 63 bd
       -0.1536165 0.040793598 0.025500514 -0.055425916

fc3.bias f4 [10]
000000 fd e3 a4 bd 56 75 41 be 37 c0 9e 3d 47 f6 5a bd
       -0.08051298 -0.18892416 0.07751506 -0.053457525
000010 6d f7 ad 3b e3 09 8a bc 3e b8 1b be d0 7b 89 bd
       0.0053090365 -0.016850417 -0.15207002 -0.067130685
000020 de 58 a6 3e f8 81 e1 bd
       0.32489675 -0.11011118
